…
weight_decay: 0.0005
stepsize: 60000
snapshot: 0
snapshot_prefix: "zf_rpn"
average_loss: 100
I0512 06:26:37.438280  9591 solver.cpp:86] Creating training net from train_net file: models/ZF/faster_rcnn_alt_opt/stage1_rpn_train.pt
I0512 06:26:37.438972  9591 net.cpp:50] Initializing net from parameters: 
name: "ZF"
state {
  phase: TRAIN
}
layer {
  name: "input-data"
  type: "Python"
  top: "data"
  top: "im_info"
  top: "gt_boxes"
  python_param {
    module: "roi_data_layer.layer"
    layer: "RoIDataLayer"
    param_str: "\'num_classes\': 21"
  }
}
layer {
  name: "conv1"
  type: "Convolution"
  bottom: "data"
  top: "conv1"
  param {
    lr_mult: 1
  }
  param {
    lr_mult: 2
  }
  convolution_param {
    num_output: 96
    pad: 3
    kernel_size: 7
    stride: 2
  }
}
layer {
  name: "relu1"
  type: "ReLU"
  bottom: "conv1"
  top: "conv1"
}
layer {
  name: "norm1"
  type: "LRN"
  bottom: "conv1"
  top: "norm1"
  lrn_param {
    local_size: 3
    alpha: 5e-05
    beta: 0.75
    norm_region: WITHIN_CHANNEL
  }
}
layer {
  name: "pool1"
  type: "Pooling"
  bottom: "norm1"
  top: "pool1"
  pooling_param {
    pool: MAX
    kernel_size: 3
    stride: 2
    pad: 1
  }
}
layer {
  name: "conv2"
  type: "Convolution"
  bottom: "pool1"
  top: "conv2"
  param {
    lr_mult: 1
  }
  param {
    lr_mult: 2
  }
  convolution_param {
    num_output: 256
    pad: 2
    kernel_size: 5
    stride: 2
  }
}
layer {
  name: "relu2"
  type: "ReLU"
  bottom: "conv2"
  top: "conv2"
}
layer {
  name: "norm2"
  type: "LRN"
  bottom: "conv2"
  top: "norm2"
  lrn_param {
    local_size: 3
    alpha: 5e-05
    beta: 0.75
    norm_region: WITHIN_CHANNEL
  }
}
layer {
  name: "pool2"
  type: "Pooling"
  bottom: "norm2"
  top: "pool2"
  pooling_param {
    pool: MAX
    kernel_size: 3
    stride: 2
    pad: 1
  }
}
layer {
  name: "conv3"
  type: "Convolution"
  bottom: "pool2"
  top: "conv3"
  param {
    lr_mult: 1
  }
  param {
    lr_mult: 2
  }
  convolution_param {
    num_output: 384
    pad: 1
    kernel_size: 3
    stride: 1
  }
}
layer {
  name: "relu3"
  type: "ReLU"
  bottom: "conv3"
  top: "conv3"
}
layer {
  name: "conv4"
  type: "Convolution"
  bottom: "conv3"
  top: "conv4"
  param {
    lr_mult: 1
  }
  param {
    lr_mult: 2
  }
  convolution_param {
    num_output: 384
    pad: 1
    kernel_size: 3
    stride: 1
  }
}
layer {
  name: "relu4"
  type: "ReLU"
  bottom: "conv4"
  top: "conv4"
}
layer {
  name: "conv5"
  type: "Convolution"
  bottom: "conv4"
  top: "conv5"
  param {
    lr_mult: 1
  }
  param {
    lr_mult: 2
  }
  convolution_param {
    num_output: 256
    pad: 1
    kernel_size: 3
    stride: 1
  }
}
layer {
  name: "relu5"
  type: "ReLU"
  bottom: "conv5"
  top: "conv5"
}
layer {
  name: "rpn_conv1"
  type: "Convolution"
  bottom: "conv5"
  top: "rpn_conv1"
  param {
    lr_mult: 1
  }
  param {
    lr_mult: 2
  }
  convolution_param {
    num_output: 256
    pad: 1
    kernel_size: 3
    stride: 1
    weight_filler {
      type: "gaussian"
      std: 0.01
    }
    bias_filler {
      type: "constant"
      value: 0
    }
  }
}
layer {
  name: "rpn_relu1"
  type: "ReLU"
  bottom: "rpn_conv1"
  top: "rpn_conv1"
}
layer {
  name: "rpn_cls_score"
  type: "Convolution"
  bottom: "rpn_conv1"
  top: "rpn_cls_score"
  param {
    lr_mult: 1
  }
  param {
    lr_mult: 2
  }
  convolution_param {
    num_output: 18
    pad: 0
    kernel_size: 1
    stride: 1
    weight_filler {
      type: "gaussian"
      std: 0.01
    }
    bias_filler {
      type: "constant"
      value: 0
    }
  }
}
layer {
  name: "rpn_bbox_pred"
  type: "Convolution"
  bottom: "rpn_conv1"
  top: "rpn_bbox_pred"
  param {
    lr_mult: 1
  }
  param {
    lr_mult: 2
  }
  convolution_param {
    num_output: 36
    pad: 0
    kernel_size: 1
    stride: 1
    weight_filler {
      type: "gaussian"
      std: 0.01
    }
    bias_filler {
      type: "constant"
      value: 0
    }
  }
}
layer {
  name: "rpn_cls_score_reshape"
  type: "Reshape"
  bottom: "rpn_cls_score"
  top: "rpn_cls_score_reshape"
  reshape_param {
    shape {
      dim: 0
      dim: 2
      dim: -1
      dim: 0
    }
  }
}
layer {
  name: "rpn-data"
  type: "Python"
  bottom: "rpn_cls_score"
  bottom: "gt_boxes"
  bottom: "im_info"
  bottom: "data"
  top: "rpn_labels"
  top: "rpn_bbox_targets"
  top: "rpn_bbox_inside_weights"
  top: "rpn_bbox_outside_weights"
  python_param {
    module: "rpn.anchor_target_layer"
    layer: "AnchorTargetLayer"
    param_str: "\'feat_stride\': 16"
  }
}
layer {
  name: "rpn_loss_cls"
  type: "SoftmaxWithLoss"
  bottom: "rpn_cls_score_reshape"
  bottom: "rpn_labels"
  top: "rpn_cls_loss"
  loss_weight: 1
  propagate_down: true
  propagate_down: false
  loss_param {
    ignore_label: -1
    normalize: true
  }
}
layer {
  name: "rpn_loss_bbox"
  type: "SmoothL1Loss"
  bottom: "rpn_bbox_pred"
  bottom: "rpn_bbox_targets"
  bottom: "rpn_bbox_inside_weights"
  bottom: "rpn_bbox_outside_weights"
  top: "rpn_loss_bbox"
  loss_weight: 1
  smooth_l1_loss_param {
    sigma: 3
  }
}
layer {
  name: "dummy_roi_pool_conv5"
  type: "DummyData"
  top: "dummy_roi_pool_conv5"
  dummy_data_param {
    data_filler {
      type: "gaussian"
      std: 0.01
    }
    shape {
      dim: 1
      dim: 9216
    }
  }
}
layer {
  name: "fc6"
  type: "InnerProduct"
  bottom: "dummy_roi_pool_conv5"
  top: "fc6"
  param {
    lr_mult: 0
    decay_mult: 0
  }
  param {
    lr_mult: 0
    decay_mult: 0
  }
  inner_product_param {
    num_output: 4096
  }
}
layer {
  name: "relu6"
  type: "ReLU"
  bottom: "fc6"
  top: "fc6"
}
layer {
  name: "fc7"
  type: "InnerProduct"
  bottom: "fc6"
  top: "fc7"
  param {
    lr_mult: 0
    decay_mult: 0
  }
  param {
    lr_mult: 0
    decay_mult: 0
  }
  inner_product_param {
    num_output: 4096
  }
}
layer {
  name: "silence_fc7"
  type: "Silence"
  bottom: "fc7"
}
I0512 06:26:37.439106  9591 layer_factory.hpp:76] Creating layer input-data
I0512 06:26:37.439553  9591 net.cpp:110] Creating Layer input-data
I0512 06:26:37.439566  9591 net.cpp:433] input-data -> data
I0512 06:26:37.439581  9591 net.cpp:433] input-data -> im_info
I0512 06:26:37.439587  9591 net.cpp:433] input-data -> gt_boxes
RoiDataLayer: name_to_top: {'gt_boxes': 2, 'data': 0, 'im_info': 1}
I0512 06:26:37.440119  9591 net.cpp:155] Setting up input-data
I0512 06:26:37.440130  9591 net.cpp:163] Top shape: 1 3 600 1000 (1800000)
I0512 06:26:37.440135  9591 net.cpp:163] Top shape: 1 3 (3)
I0512 06:26:37.440137  9591 net.cpp:163] Top shape: 1 4 (4)
I0512 06:26:37.440141  9591 layer_factory.hpp:76] Creating layer data_input-data_0_split
I0512 06:26:37.440148  9591 net.cpp:110] Creating Layer data_input-data_0_split
I0512 06:26:37.440153  9591 net.cpp:477] data_input-data_0_split <- data
I0512 06:26:37.440158  9591 net.cpp:433] data_input-data_0_split -> data_input-data_0_split_0
I0512 06:26:37.440165  9591 net.cpp:433] data_input-data_0_split -> data_input-data_0_split_1
I0512 06:26:37.440176  9591 net.cpp:155] Setting up data_input-data_0_split
I0512 06:26:37.440181  9591 net.cpp:163] Top shape: 1 3 600 1000 (1800000)
I0512 06:26:37.440183  9591 net.cpp:163] Top shape: 1 3 600 1000 (1800000)
I0512 06:26:37.440186  9591 layer_factory.hpp:76] Creating layer conv1
I0512 06:26:37.440193  9591 net.cpp:110] Creating Layer conv1
I0512 06:26:37.440197  9591 net.cpp:477] conv1 <- data_input-data_0_split_0
I0512 06:26:37.440201  9591 net.cpp:433] conv1 -> conv1
I0512 06:26:37.455348  9591 net.cpp:155] Setting up conv1
I0512 06:26:37.455368  9591 net.cpp:163] Top shape: 1 96 300 500 (14400000)
I0512 06:26:37.455382  9591 layer_factory.hpp:76] Creating layer relu1
I0512 06:26:37.455389  9591 net.cpp:110] Creating Layer relu1
I0512 06:26:37.455392  9591 net.cpp:477] relu1 <- conv1
I0512 06:26:37.455399  9591 net.cpp:419] relu1 -> conv1 (in-place)
I0512 06:26:37.455405  9591 net.cpp:155] Setting up relu1
I0512 06:26:37.455410  9591 net.cpp:163] Top shape: 1 96 300 500 (14400000)
I0512 06:26:37.455412  9591 layer_factory.hpp:76] Creating layer norm1
I0512 06:26:37.455420  9591 net.cpp:110] Creating Layer norm1
I0512 06:26:37.455426  9591 net.cpp:477] norm1 <- conv1
I0512 06:26:37.455432  9591 net.cpp:433] norm1 -> norm1
I0512 06:26:37.455464  9591 net.cpp:155] Setting up norm1
I0512 06:26:37.455469  9591 net.cpp:163] Top shape: 1 96 300 500 (14400000)
I0512 06:26:37.455472  9591 layer_factory.hpp:76] Creating layer pool1
I0512 06:26:37.455479  9591 net.cpp:110] Creating Layer pool1
I0512 06:26:37.455482  9591 net.cpp:477] pool1 <- norm1
I0512 06:26:37.455485  9591 net.cpp:433] pool1 -> pool1
I0512 06:26:37.455493  9591 net.cpp:155] Setting up pool1
I0512 06:26:37.455497  9591 net.cpp:163] Top shape: 1 96 151 251 (3638496)
I0512 06:26:37.455500  9591 layer_factory.hpp:76] Creating layer conv2
I0512 06:26:37.455505  9591 net.cpp:110] Creating Layer conv2
I0512 06:26:37.455507  9591 net.cpp:477] conv2 <- pool1
I0512 06:26:37.455513  9591 net.cpp:433] conv2 -> conv2
I0512 06:26:37.457043  9591 net.cpp:155] Setting up conv2
I0512 06:26:37.457054  9591 net.cpp:163] Top shape: 1 256 76 126 (2451456)
I0512 06:26:37.457062  9591 layer_factory.hpp:76] Creating layer relu2
I0512 06:26:37.457067  9591 net.cpp:110] Creating Layer relu2
I0512 06:26:37.457070  9591 net.cpp:477] relu2 <- conv2
I0512 06:26:37.457075  9591 net.cpp:419] relu2 -> conv2 (in-place)
I0512 06:26:37.457080  9591 net.cpp:155] Setting up relu2
I0512 06:26:37.457084  9591 net.cpp:163] Top shape: 1 256 76 126 (2451456)
I0512 06:26:37.457087  9591 layer_factory.hpp:76] Creating layer norm2
I0512 06:26:37.457093  9591 net.cpp:110] Creating Layer norm2
I0512 06:26:37.457095  9591 net.cpp:477] norm2 <- conv2
I0512 06:26:37.457099  9591 net.cpp:433] norm2 -> norm2
I0512 06:26:37.457114  9591 net.cpp:155] Setting up norm2
I0512 06:26:37.457120  9591 net.cpp:163] Top shape: 1 256 76 126 (2451456)
I0512 06:26:37.457124  9591 layer_factory.hpp:76] Creating layer pool2
I0512 06:26:37.457129  9591 net.cpp:110] Creating Layer pool2
I0512 06:26:37.457130  9591 net.cpp:477] pool2 <- norm2
I0512 06:26:37.457134  9591 net.cpp:433] pool2 -> pool2
I0512 06:26:37.457139  9591 net.cpp:155] Setting up pool2
I0512 06:26:37.457142  9591 net.cpp:163] Top shape: 1 256 39 64 (638976)
I0512 06:26:37.457145  9591 layer_factory.hpp:76] Creating layer conv3
I0512 06:26:37.457149  9591 net.cpp:110] Creating Layer conv3
I0512 06:26:37.457151  9591 net.cpp:477] conv3 <- pool2
I0512 06:26:37.457156  9591 net.cpp:433] conv3 -> conv3
I0512 06:26:37.460248  9591 net.cpp:155] Setting up conv3
I0512 06:26:37.460259  9591 net.cpp:163] Top shape: 1 384 39 64 (958464)
I0512 06:26:37.460268  9591 layer_factory.hpp:76] Creating layer relu3
I0512 06:26:37.460273  9591 net.cpp:110] Creating Layer relu3
I0512 06:26:37.460275  9591 net.cpp:477] relu3 <- conv3
I0512 06:26:37.460279  9591 net.cpp:419] relu3 -> conv3 (in-place)
I0512 06:26:37.460284  9591 net.cpp:155] Setting up relu3
I0512 06:26:37.460288  9591 net.cpp:163] Top shape: 1 384 39 64 (958464)
I0512 06:26:37.460290  9591 layer_factory.hpp:76] Creating layer conv4
I0512 06:26:37.460294  9591 net.cpp:110] Creating Layer conv4
I0512 06:26:37.460297  9591 net.cpp:477] conv4 <- conv3
I0512 06:26:37.460301  9591 net.cpp:433] conv4 -> conv4
I0512 06:26:37.463397  9591 net.cpp:155] Setting up conv4
I0512 06:26:37.463407  9591 net.cpp:163] Top shape: 1 384 39 64 (958464)
I0512 06:26:37.463413  9591 layer_factory.hpp:76] Creating layer relu4
I0512 06:26:37.463418  9591 net.cpp:110] Creating Layer relu4
I0512 06:26:37.463421  9591 net.cpp:477] relu4 <- conv4
I0512 06:26:37.463426  9591 net.cpp:419] relu4 -> conv4 (in-place)
I0512 06:26:37.463431  9591 net.cpp:155] Setting up relu4
I0512 06:26:37.463435  9591 net.cpp:163] Top shape: 1 384 39 64 (958464)
I0512 06:26:37.463438  9591 layer_factory.hpp:76] Creating layer conv5
I0512 06:26:37.463443  9591 net.cpp:110] Creating Layer conv5
I0512 06:26:37.463445  9591 net.cpp:477] conv5 <- conv4
I0512 06:26:37.463449  9591 net.cpp:433] conv5 -> conv5
I0512 06:26:37.465571  9591 net.cpp:155] Setting up conv5
I0512 06:26:37.465582  9591 net.cpp:163] Top shape: 1 256 39 64 (638976)
I0512 06:26:37.465590  9591 layer_factory.hpp:76] Creating layer relu5
I0512 06:26:37.465595  9591 net.cpp:110] Creating Layer relu5
I0512 06:26:37.465598  9591 net.cpp:477] relu5 <- conv5
I0512 06:26:37.465602  9591 net.cpp:419] relu5 -> conv5 (in-place)
I0512 06:26:37.465607  9591 net.cpp:155] Setting up relu5
I0512 06:26:37.465610  9591 net.cpp:163] Top shape: 1 256 39 64 (638976)
I0512 06:26:37.465613  9591 layer_factory.hpp:76] Creating layer rpn_conv1
I0512 06:26:37.465623  9591 net.cpp:110] Creating Layer rpn_conv1
I0512 06:26:37.465626  9591 net.cpp:477] rpn_conv1 <- conv5
I0512 06:26:37.465631  9591 net.cpp:433] rpn_conv1 -> rpn_conv1
I0512 06:26:37.482316  9591 net.cpp:155] Setting up rpn_conv1
I0512 06:26:37.482326  9591 net.cpp:163] Top shape: 1 256 39 64 (638976)
I0512 06:26:37.482332  9591 layer_factory.hpp:76] Creating layer rpn_relu1
I0512 06:26:37.482337  9591 net.cpp:110] Creating Layer rpn_relu1
I0512 06:26:37.482341  9591 net.cpp:477] rpn_relu1 <- rpn_conv1
I0512 06:26:37.482347  9591 net.cpp:419] rpn_relu1 -> rpn_conv1 (in-place)
I0512 06:26:37.482352  9591 net.cpp:155] Setting up rpn_relu1
I0512 06:26:37.482355  9591 net.cpp:163] Top shape: 1 256 39 64 (638976)
I0512 06:26:37.482357  9591 layer_factory.hpp:76] Creating layer rpn_conv1_rpn_relu1_0_split
I0512 06:26:37.482362  9591 net.cpp:110] Creating Layer rpn_conv1_rpn_relu1_0_split
I0512 06:26:37.482365  9591 net.cpp:477] rpn_conv1_rpn_relu1_0_split <- rpn_conv1
I0512 06:26:37.482368  9591 net.cpp:433] rpn_conv1_rpn_relu1_0_split -> rpn_conv1_rpn_relu1_0_split_0
I0512 06:26:37.482373  9591 net.cpp:433] rpn_conv1_rpn_relu1_0_split -> rpn_conv1_rpn_relu1_0_split_1
I0512 06:26:37.482379  9591 net.cpp:155] Setting up rpn_conv1_rpn_relu1_0_split
I0512 06:26:37.482383  9591 net.cpp:163] Top shape: 1 256 39 64 (638976)
I0512 06:26:37.482386  9591 net.cpp:163] Top shape: 1 256 39 64 (638976)
I0512 06:26:37.482389  9591 layer_factory.hpp:76] Creating layer rpn_cls_score
I0512 06:26:37.482395  9591 net.cpp:110] Creating Layer rpn_cls_score
I0512 06:26:37.482400  9591 net.cpp:477] rpn_cls_score <- rpn_conv1_rpn_relu1_0_split_0
I0512 06:26:37.482406  9591 net.cpp:433] rpn_cls_score -> rpn_cls_score
I0512 06:26:37.482575  9591 net.cpp:155] Setting up rpn_cls_score
I0512 06:26:37.482583  9591 net.cpp:163] Top shape: 1 18 39 64 (44928)
I0512 06:26:37.482588  9591 layer_factory.hpp:76] Creating layer rpn_cls_score_rpn_cls_score_0_split
I0512 06:26:37.482591  9591 net.cpp:110] Creating Layer rpn_cls_score_rpn_cls_score_0_split
I0512 06:26:37.482594  9591 net.cpp:477] rpn_cls_score_rpn_cls_score_0_split <- rpn_cls_score
I0512 06:26:37.482597  9591 net.cpp:433] rpn_cls_score_rpn_cls_score_0_split -> rpn_cls_score_rpn_cls_score_0_split_0
I0512 06:26:37.482602  9591 net.cpp:433] rpn_cls_score_rpn_cls_score_0_split -> rpn_cls_score_rpn_cls_score_0_split_1
I0512 06:26:37.482609  9591 net.cpp:155] Setting up rpn_cls_score_rpn_cls_score_0_split
I0512 06:26:37.482614  9591 net.cpp:163] Top shape: 1 18 39 64 (44928)
I0512 06:26:37.482616  9591 net.cpp:163] Top shape: 1 18 39 64 (44928)
I0512 06:26:37.482620  9591 layer_factory.hpp:76] Creating layer rpn_bbox_pred
I0512 06:26:37.482626  9591 net.cpp:110] Creating Layer rpn_bbox_pred
I0512 06:26:37.482630  9591 net.cpp:477] rpn_bbox_pred <- rpn_conv1_rpn_relu1_0_split_1
I0512 06:26:37.482636  9591 net.cpp:433] rpn_bbox_pred -> rpn_bbox_pred
I0512 06:26:37.482924  9591 net.cpp:155] Setting up rpn_bbox_pred
I0512 06:26:37.482930  9591 net.cpp:163] Top shape: 1 36 39 64 (89856)
I0512 06:26:37.482935  9591 layer_factory.hpp:76] Creating layer rpn_cls_score_reshape
I0512 06:26:37.482946  9591 net.cpp:110] Creating Layer rpn_cls_score_reshape
I0512 06:26:37.482949  9591 net.cpp:477] rpn_cls_score_reshape <- rpn_cls_score_rpn_cls_score_0_split_0
I0512 06:26:37.482954  9591 net.cpp:433] rpn_cls_score_reshape -> rpn_cls_score_reshape
I0512 06:26:37.482967  9591 net.cpp:155] Setting up rpn_cls_score_reshape
I0512 06:26:37.482971  9591 net.cpp:163] Top shape: 1 2 351 64 (44928)
I0512 06:26:37.482975  9591 layer_factory.hpp:76] Creating layer rpn-data
I0512 06:26:37.483490  9591 net.cpp:110] Creating Layer rpn-data
I0512 06:26:37.483500  9591 net.cpp:477] rpn-data <- rpn_cls_score_rpn_cls_score_0_split_1
I0512 06:26:37.483505  9591 net.cpp:477] rpn-data <- gt_boxes
I0512 06:26:37.483508  9591 net.cpp:477] rpn-data <- im_info
I0512 06:26:37.483511  9591 net.cpp:477] rpn-data <- data_input-data_0_split_1
I0512 06:26:37.483516  9591 net.cpp:433] rpn-data -> rpn_labels
I0512 06:26:37.483523  9591 net.cpp:433] rpn-data -> rpn_bbox_targets
I0512 06:26:37.483528  9591 net.cpp:433] rpn-data -> rpn_bbox_inside_weights
I0512 06:26:37.483533  9591 net.cpp:433] rpn-data -> rpn_bbox_outside_weights
I0512 06:26:37.484722  9591 net.cpp:155] Setting up rpn-data
I0512 06:26:37.484735  9591 net.cpp:163] Top shape: 1 1 351 64 (22464)
I0512 06:26:37.484740  9591 net.cpp:163] Top shape: 1 36 39 64 (89856)
I0512 06:26:37.484742  9591 net.cpp:163] Top shape: 1 36 39 64 (89856)
I0512 06:26:37.484745  9591 net.cpp:163] Top shape: 1 36 39 64 (89856)
I0512 06:26:37.484748  9591 layer_factory.hpp:76] Creating layer rpn_loss_cls
I0512 06:26:37.484757  9591 net.cpp:110] Creating Layer rpn_loss_cls
I0512 06:26:37.484761  9591 net.cpp:477] rpn_loss_cls <- rpn_cls_score_reshape
I0512 06:26:37.484766  9591 net.cpp:477] rpn_loss_cls <- rpn_labels
I0512 06:26:37.484771  9591 net.cpp:433] rpn_loss_cls -> rpn_cls_loss
I0512 06:26:37.484781  9591 layer_factory.hpp:76] Creating layer rpn_loss_cls
…
           'RPN_PRE_NMS_TOP_N': 12000,
           'SCALES': [600],
           'SNAPSHOT_INFIX': 'stage1',
           'SNAPSHOT_ITERS': 10000,
           'USE_FLIPPED': True,
           'USE_PREFETCH': False},
 'USE_GPU_NMS': True}
Loaded dataset `voc_2007_trainval` for proposal generation
WARNING: Logging before InitGoogleLogging() is written to STDERR
I0512 06:27:44.695611  9597 net.cpp:50] Initializing net from parameters: 
name: "ZF"
input: "data"
input: "im_info"
state {
  phase: TEST
}
input_shape {
  dim: 1
  dim: 3
  dim: 224
  dim: 224
}
input_shape {
  dim: 1
  dim: 3
}
layer {
  name: "conv1"
  type: "Convolution"
  bottom: "data"
  top: "conv1"
  convolution_param {
    num_output: 96
    pad: 3
    kernel_size: 7
    stride: 2
  }
}
layer {
  name: "relu1"
  type: "ReLU"
  bottom: "conv1"
  top: "conv1"
}
layer {
  name: "norm1"
  type: "LRN"
  bottom: "conv1"
  top: "norm1"
  lrn_param {
    local_size: 3
    alpha: 5e-05
    beta: 0.75
    norm_region: WITHIN_CHANNEL
  }
}
layer {
  name: "pool1"
  type: "Pooling"
  bottom: "norm1"
  top: "pool1"
  pooling_param {
    pool: MAX
    kernel_size: 3
    stride: 2
    pad: 1
  }
}
layer {
  name: "conv2"
  type: "Convolution"
  bottom: "pool1"
  top: "conv2"
  convolution_param {
    num_output: 256
    pad: 2
    kernel_size: 5
    stride: 2
  }
}
layer {
  name: "relu2"
  type: "ReLU"
  bottom: "conv2"
  top: "conv2"
}
layer {
  name: "norm2"
  type: "LRN"
  bottom: "conv2"
  top: "norm2"
  lrn_param {
    local_size: 3
    alpha: 5e-05
    beta: 0.75
    norm_region: WITHIN_CHANNEL
  }
}
layer {
  name: "pool2"
  type: "Pooling"
  bottom: "norm2"
  top: "pool2"
  pooling_param {
    pool: MAX
    kernel_size: 3
    stride: 2
    pad: 1
  }
}
layer {
  name: "conv3"
  type: "Convolution"
  bottom: "pool2"
  top: "conv3"
  convolution_param {
    num_output: 384
    pad: 1
    kernel_size: 3
    stride: 1
  }
}
layer {
  name: "relu3"
  type: "ReLU"
  bottom: "conv3"
  top: "conv3"
}
layer {
  name: "conv4"
  type: "Convolution"
  bottom: "conv3"
  top: "conv4"
  convolution_param {
    num_output: 384
    pad: 1
    kernel_size: 3
    stride: 1
  }
}
layer {
  name: "relu4"
  type: "ReLU"
  bottom: "conv4"
  top: "conv4"
}
layer {
  name: "conv5"
  type: "Convolution"
  bottom: "conv4"
  top: "conv5"
  convolution_param {
    num_output: 256
    pad: 1
    kernel_size: 3
    stride: 1
  }
}
layer {
  name: "relu5"
  type: "ReLU"
  bottom: "conv5"
  top: "conv5"
}
layer {
  name: "rpn_conv1"
  type: "Convolution"
  bottom: "conv5"
  top: "rpn_conv1"
  convolution_param {
    num_output: 256
    pad: 1
    kernel_size: 3
    stride: 1
  }
}
layer {
  name: "rpn_relu1"
  type: "ReLU"
  bottom: "rpn_conv1"
  top: "rpn_conv1"
}
layer {
  name: "rpn_cls_score"
  type: "Convolution"
  bottom: "rpn_conv1"
  top: "rpn_cls_score"
  convolution_param {
    num_output: 18
    pad: 0
    kernel_size: 1
    stride: 1
  }
}
layer {
  name: "rpn_bbox_pred"
  type: "Convolution"
  bottom: "rpn_conv1"
  top: "rpn_bbox_pred"
  convolution_param {
    num_output: 36
    pad: 0
    kernel_size: 1
    stride: 1
  }
}
layer {
  name: "rpn_cls_score_reshape"
  type: "Reshape"
  bottom: "rpn_cls_score"
  top: "rpn_cls_score_reshape"
  reshape_param {
    shape {
      dim: 0
      dim: 2
      dim: -1
      dim: 0
    }
  }
}
layer {
  name: "rpn_cls_prob"
  type: "Softmax"
  bottom: "rpn_cls_score_reshape"
  top: "rpn_cls_prob"
}
layer {
  name: "rpn_cls_prob_reshape"
  type: "Reshape"
  bottom: "rpn_cls_prob"
  top: "rpn_cls_prob_reshape"
  reshape_param {
    shape {
      dim: 0
      dim: 18
      dim: -1
      dim: 0
    }
  }
}
layer {
  name: "proposal"
  type: "Python"
  bottom: "rpn_cls_prob_reshape"
  bottom: "rpn_bbox_pred"
  bottom: "im_info"
  top: "rois"
  top: "scores"
  python_param {
    module: "rpn.proposal_layer"
    layer: "ProposalLayer"
    param_str: "\'feat_stride\': 16"
  }
}
I0512 06:27:44.695746  9597 net.cpp:435] Input 0 -> data
I0512 06:27:44.695775  9597 net.cpp:435] Input 1 -> im_info
I0512 06:27:44.695791  9597 layer_factory.hpp:76] Creating layer conv1
I0512 06:27:44.695809  9597 net.cpp:110] Creating Layer conv1
I0512 06:27:44.695816  9597 net.cpp:477] conv1 <- data
I0512 06:27:44.695822  9597 net.cpp:433] conv1 -> conv1
I0512 06:27:44.715157  9597 net.cpp:155] Setting up conv1
I0512 06:27:44.715183  9597 net.cpp:163] Top shape: 1 96 112 112 (1204224)
I0512 06:27:44.715201  9597 layer_factory.hpp:76] Creating layer relu1
I0512 06:27:44.715210  9597 net.cpp:110] Creating Layer relu1
I0512 06:27:44.715214  9597 net.cpp:477] relu1 <- conv1
I0512 06:27:44.715220  9597 net.cpp:419] relu1 -> conv1 (in-place)
I0512 06:27:44.715229  9597 net.cpp:155] Setting up relu1
I0512 06:27:44.715234  9597 net.cpp:163] Top shape: 1 96 112 112 (1204224)
I0512 06:27:44.715239  9597 layer_factory.hpp:76] Creating layer norm1
I0512 06:27:44.715250  9597 net.cpp:110] Creating Layer norm1
I0512 06:27:44.715256  9597 net.cpp:477] norm1 <- conv1
I0512 06:27:44.715262  9597 net.cpp:433] norm1 -> norm1
I0512 06:27:44.715304  9597 net.cpp:155] Setting up norm1
I0512 06:27:44.715325  9597 net.cpp:163] Top shape: 1 96 112 112 (1204224)
I0512 06:27:44.715329  9597 layer_factory.hpp:76] Creating layer pool1
I0512 06:27:44.715337  9597 net.cpp:110] Creating Layer pool1
I0512 06:27:44.715339  9597 net.cpp:477] pool1 <- norm1
I0512 06:27:44.715344  9597 net.cpp:433] pool1 -> pool1
I0512 06:27:44.715353  9597 net.cpp:155] Setting up pool1
I0512 06:27:44.715358  9597 net.cpp:163] Top shape: 1 96 57 57 (311904)
I0512 06:27:44.715373  9597 layer_factory.hpp:76] Creating layer conv2
I0512 06:27:44.715379  9597 net.cpp:110] Creating Layer conv2
I0512 06:27:44.715383  9597 net.cpp:477] conv2 <- pool1
I0512 06:27:44.715387  9597 net.cpp:433] conv2 -> conv2
I0512 06:27:44.717900  9597 net.cpp:155] Setting up conv2
I0512 06:27:44.717916  9597 net.cpp:163] Top shape: 1 256 29 29 (215296)
I0512 06:27:44.717926  9597 layer_factory.hpp:76] Creating layer relu2
I0512 06:27:44.717936  9597 net.cpp:110] Creating Layer relu2
I0512 06:27:44.717941  9597 net.cpp:477] relu2 <- conv2
I0512 06:27:44.717946  9597 net.cpp:419] relu2 -> conv2 (in-place)
I0512 06:27:44.717952  9597 net.cpp:155] Setting up relu2
I0512 06:27:44.717957  9597 net.cpp:163] Top shape: 1 256 29 29 (215296)
I0512 06:27:44.717959  9597 layer_factory.hpp:76] Creating layer norm2
I0512 06:27:44.717967  9597 net.cpp:110] Creating Layer norm2
I0512 06:27:44.717970  9597 net.cpp:477] norm2 <- conv2
I0512 06:27:44.717974  9597 net.cpp:433] norm2 -> norm2
I0512 06:27:44.717999  9597 net.cpp:155] Setting up norm2
I0512 06:27:44.718008  9597 net.cpp:163] Top shape: 1 256 29 29 (215296)
I0512 06:27:44.718011  9597 layer_factory.hpp:76] Creating layer pool2
I0512 06:27:44.718016  9597 net.cpp:110] Creating Layer pool2
I0512 06:27:44.718020  9597 net.cpp:477] pool2 <- norm2
I0512 06:27:44.718024  9597 net.cpp:433] pool2 -> pool2
I0512 06:27:44.718030  9597 net.cpp:155] Setting up pool2
I0512 06:27:44.718035  9597 net.cpp:163] Top shape: 1 256 15 15 (57600)
I0512 06:27:44.718039  9597 layer_factory.hpp:76] Creating layer conv3
I0512 06:27:44.718045  9597 net.cpp:110] Creating Layer conv3
I0512 06:27:44.718057  9597 net.cpp:477] conv3 <- pool2
I0512 06:27:44.718065  9597 net.cpp:433] conv3 -> conv3
I0512 06:27:44.720751  9597 net.cpp:155] Setting up conv3
I0512 06:27:44.720765  9597 net.cpp:163] Top shape: 1 384 15 15 (86400)
I0512 06:27:44.720777  9597 layer_factory.hpp:76] Creating layer relu3
I0512 06:27:44.720787  9597 net.cpp:110] Creating Layer relu3
I0512 06:27:44.720793  9597 net.cpp:477] relu3 <- conv3
I0512 06:27:44.720798  9597 net.cpp:419] relu3 -> conv3 (in-place)
I0512 06:27:44.720805  9597 net.cpp:155] Setting up relu3
I0512 06:27:44.720810  9597 net.cpp:163] Top shape: 1 384 15 15 (86400)
I0512 06:27:44.720814  9597 layer_factory.hpp:76] Creating layer conv4
I0512 06:27:44.720820  9597 net.cpp:110] Creating Layer conv4
I0512 06:27:44.720824  9597 net.cpp:477] conv4 <- conv3
I0512 06:27:44.720830  9597 net.cpp:433] conv4 -> conv4
I0512 06:27:44.724727  9597 net.cpp:155] Setting up conv4
I0512 06:27:44.724742  9597 net.cpp:163] Top shape: 1 384 15 15 (86400)
I0512 06:27:44.724750  9597 layer_factory.hpp:76] Creating layer relu4
I0512 06:27:44.724756  9597 net.cpp:110] Creating Layer relu4
I0512 06:27:44.724761  9597 net.cpp:477] relu4 <- conv4
I0512 06:27:44.724766  9597 net.cpp:419] relu4 -> conv4 (in-place)
I0512 06:27:44.724772  9597 net.cpp:155] Setting up relu4
I0512 06:27:44.724778  9597 net.cpp:163] Top shape: 1 384 15 15 (86400)
I0512 06:27:44.724782  9597 layer_factory.hpp:76] Creating layer conv5
I0512 06:27:44.724788  9597 net.cpp:110] Creating Layer conv5
I0512 06:27:44.724792  9597 net.cpp:477] conv5 <- conv4
I0512 06:27:44.724797  9597 net.cpp:433] conv5 -> conv5
I0512 06:27:44.727457  9597 net.cpp:155] Setting up conv5
I0512 06:27:44.727471  9597 net.cpp:163] Top shape: 1 256 15 15 (57600)
I0512 06:27:44.727483  9597 layer_factory.hpp:76] Creating layer relu5
I0512 06:27:44.727490  9597 net.cpp:110] Creating Layer relu5
I0512 06:27:44.727494  9597 net.cpp:477] relu5 <- conv5
I0512 06:27:44.727499  9597 net.cpp:419] relu5 -> conv5 (in-place)
I0512 06:27:44.727509  9597 net.cpp:155] Setting up relu5
I0512 06:27:44.727514  9597 net.cpp:163] Top shape: 1 256 15 15 (57600)
I0512 06:27:44.727516  9597 layer_factory.hpp:76] Creating layer rpn_conv1
I0512 06:27:44.727524  9597 net.cpp:110] Creating Layer rpn_conv1
I0512 06:27:44.727529  9597 net.cpp:477] rpn_conv1 <- conv5
I0512 06:27:44.727533  9597 net.cpp:433] rpn_conv1 -> rpn_conv1
I0512 06:27:44.729358  9597 net.cpp:155] Setting up rpn_conv1
I0512 06:27:44.729372  9597 net.cpp:163] Top shape: 1 256 15 15 (57600)
I0512 06:27:44.729380  9597 layer_factory.hpp:76] Creating layer rpn_relu1
I0512 06:27:44.729387  9597 net.cpp:110] Creating Layer rpn_relu1
I0512 06:27:44.729390  9597 net.cpp:477] rpn_relu1 <- rpn_conv1
I0512 06:27:44.729398  9597 net.cpp:419] rpn_relu1 -> rpn_conv1 (in-place)
I0512 06:27:44.729404  9597 net.cpp:155] Setting up rpn_relu1
I0512 06:27:44.729409  9597 net.cpp:163] Top shape: 1 256 15 15 (57600)
I0512 06:27:44.729413  9597 layer_factory.hpp:76] Creating layer rpn_conv1_rpn_relu1_0_split
I0512 06:27:44.729423  9597 net.cpp:110] Creating Layer rpn_conv1_rpn_relu1_0_split
I0512 06:27:44.729428  9597 net.cpp:477] rpn_conv1_rpn_relu1_0_split <- rpn_conv1
I0512 06:27:44.729431  9597 net.cpp:433] rpn_conv1_rpn_relu1_0_split -> rpn_conv1_rpn_relu1_0_split_0
I0512 06:27:44.729437  9597 net.cpp:433] rpn_conv1_rpn_relu1_0_split -> rpn_conv1_rpn_relu1_0_split_1
I0512 06:27:44.729444  9597 net.cpp:155] Setting up rpn_conv1_rpn_relu1_0_split
I0512 06:27:44.729449  9597 net.cpp:163] Top shape: 1 256 15 15 (57600)
I0512 06:27:44.729452  9597 net.cpp:163] Top shape: 1 256 15 15 (57600)
I0512 06:27:44.729456  9597 layer_factory.hpp:76] Creating layer rpn_cls_score
I0512 06:27:44.729462  9597 net.cpp:110] Creating Layer rpn_cls_score
I0512 06:27:44.729465  9597 net.cpp:477] rpn_cls_score <- rpn_conv1_rpn_relu1_0_split_0
I0512 06:27:44.729472  9597 net.cpp:433] rpn_cls_score -> rpn_cls_score
I0512 06:27:44.729529  9597 net.cpp:155] Setting up rpn_cls_score
I0512 06:27:44.729537  9597 net.cpp:163] Top shape: 1 18 15 15 (4050)
I0512 06:27:44.729544  9597 layer_factory.hpp:76] Creating layer rpn_bbox_pred
I0512 06:27:44.729549  9597 net.cpp:110] Creating Layer rpn_bbox_pred
I0512 06:27:44.729568  9597 net.cpp:477] rpn_bbox_pred <- rpn_conv1_rpn_relu1_0_split_1
I0512 06:27:44.729573  9597 net.cpp:433] rpn_bbox_pred -> rpn_bbox_pred
I0512 06:27:44.729630  9597 net.cpp:155] Setting up rpn_bbox_pred
I0512 06:27:44.729638  9597 net.cpp:163] Top shape: 1 36 15 15 (8100)
I0512 06:27:44.729645  9597 layer_factory.hpp:76] Creating layer rpn_cls_score_reshape
I0512 06:27:44.729655  9597 net.cpp:110] Creating Layer rpn_cls_score_reshape
I0512 06:27:44.729660  9597 net.cpp:477] rpn_cls_score_reshape <- rpn_cls_score
I0512 06:27:44.729665  9597 net.cpp:433] rpn_cls_score_reshape -> rpn_cls_score_reshape
I0512 06:27:44.729682  9597 net.cpp:155] Setting up rpn_cls_score_reshape
I0512 06:27:44.729689  9597 net.cpp:163] Top shape: 1 2 135 15 (4050)
I0512 06:27:44.729693  9597 layer_factory.hpp:76] Creating layer rpn_cls_prob
I0512 06:27:44.729701  9597 net.cpp:110] Creating Layer rpn_cls_prob
I0512 06:27:44.729706  9597 net.cpp:477] rpn_cls_prob <- rpn_cls_score_reshape
I0512 06:27:44.729718  9597 net.cpp:433] rpn_cls_prob -> rpn_cls_prob
I0512 06:27:44.729745  9597 net.cpp:155] Setting up rpn_cls_prob
I0512 06:27:44.729753  9597 net.cpp:163] Top shape: 1 2 135 15 (4050)
I0512 06:27:44.729756  9597 layer_factory.hpp:76] Creating layer rpn_cls_prob_reshape
I0512 06:27:44.729763  9597 net.cpp:110] Creating Layer rpn_cls_prob_reshape
I0512 06:27:44.729766  9597 net.cpp:477] rpn_cls_prob_reshape <- rpn_cls_prob
I0512 06:27:44.729771  9597 net.cpp:433] rpn_cls_prob_reshape -> rpn_cls_prob_reshape
I0512 06:27:44.729779  9597 net.cpp:155] Setting up rpn_cls_prob_reshape
I0512 06:27:44.729784  9597 net.cpp:163] Top shape: 1 18 15 15 (4050)
I0512 06:27:44.729789  9597 layer_factory.hpp:76] Creating layer proposal
I0512 06:27:44.731681  9597 net.cpp:110] Creating Layer proposal
I0512 06:27:44.731698  9597 net.cpp:477] proposal <- rpn_cls_prob_reshape
I0512 06:27:44.731704  9597 net.cpp:477] proposal <- rpn_bbox_pred
I0512 06:27:44.731709  9597 net.cpp:477] proposal <- im_info
I0512 06:27:44.731715  9597 net.cpp:433] proposal -> rois
I0512 06:27:44.731724  9597 net.cpp:433] proposal -> scores
I0512 06:27:44.732956  9597 net.cpp:155] Setting up proposal
I0512 06:27:44.732975  9597 net.cpp:163] Top shape: 1 5 (5)
I0512 06:27:44.732980  9597 net.cpp:163] Top shape: 1 1 1 1 (1)
I0512 06:27:44.732985  9597 net.cpp:240] proposal does not need backward computation.
I0512 06:27:44.732996  9597 net.cpp:240] rpn_cls_prob_reshape does not need backward computation.
I0512 06:27:44.733000  9597 net.cpp:240] rpn_cls_prob does not need backward computation.
I0512 06:27:44.733003  9597 net.cpp:240] rpn_cls_score_reshape does not need backward computation.
I0512 06:27:44.733007  9597 net.cpp:240] rpn_bbox_pred does not need backward computation.
…
average_loss: 100
I0512 06:28:44.211333  9601 solver.cpp:86] Creating training net from train_net file: models/ZF/faster_rcnn_alt_opt/stage1_fast_rcnn_train.pt
I0512 06:28:44.212116  9601 net.cpp:50] Initializing net from parameters: 
name: "ZF"
state {
  phase: TRAIN
}
layer {
  name: "data"
  type: "Python"
  top: "data"
  top: "rois"
  top: "labels"
  top: "bbox_targets"
  top: "bbox_inside_weights"
  top: "bbox_outside_weights"
  python_param {
    module: "roi_data_layer.layer"
    layer: "RoIDataLayer"
    param_str: "\'num_classes\': 21"
  }
}
layer {
  name: "conv1"
  type: "Convolution"
  bottom: "data"
  top: "conv1"
  param {
    lr_mult: 1
  }
  param {
    lr_mult: 2
  }
  convolution_param {
    num_output: 96
    pad: 3
    kernel_size: 7
    stride: 2
  }
}
layer {
  name: "relu1"
  type: "ReLU"
  bottom: "conv1"
  top: "conv1"
}
layer {
  name: "norm1"
  type: "LRN"
  bottom: "conv1"
  top: "norm1"
  lrn_param {
    local_size: 3
    alpha: 5e-05
    beta: 0.75
    norm_region: WITHIN_CHANNEL
  }
}
layer {
  name: "pool1"
  type: "Pooling"
  bottom: "norm1"
  top: "pool1"
  pooling_param {
    pool: MAX
    kernel_size: 3
    stride: 2
    pad: 1
  }
}
layer {
  name: "conv2"
  type: "Convolution"
  bottom: "pool1"
  top: "conv2"
  param {
    lr_mult: 1
  }
  param {
    lr_mult: 2
  }
  convolution_param {
    num_output: 256
    pad: 2
    kernel_size: 5
    stride: 2
  }
}
layer {
  name: "relu2"
  type: "ReLU"
  bottom: "conv2"
  top: "conv2"
}
layer {
  name: "norm2"
  type: "LRN"
  bottom: "conv2"
  top: "norm2"
  lrn_param {
    local_size: 3
    alpha: 5e-05
    beta: 0.75
    norm_region: WITHIN_CHANNEL
  }
}
layer {
  name: "pool2"
  type: "Pooling"
  bottom: "norm2"
  top: "pool2"
  pooling_param {
    pool: MAX
    kernel_size: 3
    stride: 2
    pad: 1
  }
}
layer {
  name: "conv3"
  type: "Convolution"
  bottom: "pool2"
  top: "conv3"
  param {
    lr_mult: 1
  }
  param {
    lr_mult: 2
  }
  convolution_param {
    num_output: 384
    pad: 1
    kernel_size: 3
    stride: 1
  }
}
layer {
  name: "relu3"
  type: "ReLU"
  bottom: "conv3"
  top: "conv3"
}
layer {
  name: "conv4"
  type: "Convolution"
  bottom: "conv3"
  top: "conv4"
  param {
    lr_mult: 1
  }
  param {
    lr_mult: 2
  }
  convolution_param {
    num_output: 384
    pad: 1
    kernel_size: 3
    stride: 1
  }
}
layer {
  name: "relu4"
  type: "ReLU"
  bottom: "conv4"
  top: "conv4"
}
layer {
  name: "conv5"
  type: "Convolution"
  bottom: "conv4"
  top: "conv5"
  param {
    lr_mult: 1
  }
  param {
    lr_mult: 2
  }
  convolution_param {
    num_output: 256
    pad: 1
    kernel_size: 3
    stride: 1
  }
}
layer {
  name: "relu5"
  type: "ReLU"
  bottom: "conv5"
  top: "conv5"
}
layer {
  name: "roi_pool_conv5"
  type: "ROIPooling"
  bottom: "conv5"
  bottom: "rois"
  top: "roi_pool_conv5"
  roi_pooling_param {
    pooled_h: 6
    pooled_w: 6
    spatial_scale: 0.0625
  }
}
layer {
  name: "fc6"
  type: "InnerProduct"
  bottom: "roi_pool_conv5"
  top: "fc6"
  param {
    lr_mult: 1
  }
  param {
    lr_mult: 2
  }
  inner_product_param {
    num_output: 4096
  }
}
layer {
  name: "relu6"
  type: "ReLU"
  bottom: "fc6"
  top: "fc6"
}
layer {
  name: "drop6"
  type: "Dropout"
  bottom: "fc6"
  top: "fc6"
  dropout_param {
    dropout_ratio: 0.5
    scale_train: false
  }
}
layer {
  name: "fc7"
  type: "InnerProduct"
  bottom: "fc6"
  top: "fc7"
  param {
    lr_mult: 1
  }
  param {
    lr_mult: 2
  }
  inner_product_param {
    num_output: 4096
  }
}
layer {
  name: "relu7"
  type: "ReLU"
  bottom: "fc7"
  top: "fc7"
}
layer {
  name: "drop7"
  type: "Dropout"
  bottom: "fc7"
  top: "fc7"
  dropout_param {
    dropout_ratio: 0.5
    scale_train: false
  }
}
layer {
  name: "cls_score"
  type: "InnerProduct"
  bottom: "fc7"
  top: "cls_score"
  param {
    lr_mult: 1
  }
  param {
    lr_mult: 2
  }
  inner_product_param {
    num_output: 21
    weight_filler {
      type: "gaussian"
      std: 0.01
    }
    bias_filler {
      type: "constant"
      value: 0
    }
  }
}
layer {
  name: "bbox_pred"
  type: "InnerProduct"
  bottom: "fc7"
  top: "bbox_pred"
  param {
    lr_mult: 1
  }
  param {
    lr_mult: 2
  }
  inner_product_param {
    num_output: 84
    weight_filler {
      type: "gaussian"
      std: 0.001
    }
    bias_filler {
      type: "constant"
      value: 0
    }
  }
}
layer {
  name: "loss_cls"
  type: "SoftmaxWithLoss"
  bottom: "cls_score"
  bottom: "labels"
  top: "cls_loss"
  loss_weight: 1
  propagate_down: true
  propagate_down: false
  loss_param {
    ignore_label: -1
    normalize: true
  }
}
layer {
  name: "loss_bbox"
  type: "SmoothL1Loss"
  bottom: "bbox_pred"
  bottom: "bbox_targets"
  bottom: "bbox_inside_weights"
  bottom: "bbox_outside_weights"
  top: "bbox_loss"
  loss_weight: 1
}
layer {
  name: "rpn_conv1"
  type: "Convolution"
  bottom: "conv5"
  top: "rpn_conv1"
  param {
    lr_mult: 0
    decay_mult: 0
  }
  param {
    lr_mult: 0
    decay_mult: 0
  }
  convolution_param {
    num_output: 256
    pad: 1
    kernel_size: 3
    stride: 1
    weight_filler {
      type: "gaussian"
      std: 0.01
    }
    bias_filler {
      type: "constant"
      value: 0
    }
  }
}
layer {
  name: "rpn_relu1"
  type: "ReLU"
  bottom: "rpn_conv1"
  top: "rpn_conv1"
}
layer {
  name: "rpn_cls_score"
  type: "Convolution"
  bottom: "rpn_conv1"
  top: "rpn_cls_score"
  param {
    lr_mult: 0
    decay_mult: 0
  }
  param {
    lr_mult: 0
    decay_mult: 0
  }
  convolution_param {
    num_output: 18
    pad: 0
    kernel_size: 1
    stride: 1
    weight_filler {
      type: "gaussian"
      std: 0.01
    }
    bias_filler {
      type: "constant"
      value: 0
    }
  }
}
layer {
  name: "rpn_bbox_pred"
  type: "Convolution"
  bottom: "rpn_conv1"
  top: "rpn_bbox_pred"
  param {
    lr_mult: 0
    decay_mult: 0
  }
  param {
    lr_mult: 0
    decay_mult: 0
  }
  convolution_param {
    num_output: 36
    pad: 0
    kernel_size: 1
    stride: 1
    weight_filler {
      type: "gaussian"
      std: 0.01
    }
    bias_filler {
      type: "constant"
      value: 0
    }
  }
}
layer {
  name: "silence_rpn_cls_score"
  type: "Silence"
  bottom: "rpn_cls_score"
}
layer {
  name: "silence_rpn_bbox_pred"
  type: "Silence"
  bottom: "rpn_bbox_pred"
}
I0512 06:28:44.212268  9601 layer_factory.hpp:76] Creating layer data
I0512 06:28:44.213034  9601 net.cpp:110] Creating Layer data
I0512 06:28:44.213060  9601 net.cpp:433] data -> data
I0512 06:28:44.213078  9601 net.cpp:433] data -> rois
I0512 06:28:44.213083  9601 net.cpp:433] data -> labels
I0512 06:28:44.213089  9601 net.cpp:433] data -> bbox_targets
I0512 06:28:44.213094  9601 net.cpp:433] data -> bbox_inside_weights
I0512 06:28:44.213099  9601 net.cpp:433] data -> bbox_outside_weights
RoiDataLayer: name_to_top: {'bbox_inside_weights': 4, 'labels': 2, 'rois': 1, 'bbox_targets': 3, 'bbox_outside_weights': 5, 'data': 0}
I0512 06:28:44.213958  9601 net.cpp:155] Setting up data
I0512 06:28:44.213989  9601 net.cpp:163] Top shape: 2 3 600 1000 (3600000)
I0512 06:28:44.214004  9601 net.cpp:163] Top shape: 1 5 (5)
I0512 06:28:44.214006  9601 net.cpp:163] Top shape: 1 (1)
I0512 06:28:44.214010  9601 net.cpp:163] Top shape: 1 84 (84)
I0512 06:28:44.214013  9601 net.cpp:163] Top shape: 1 84 (84)
I0512 06:28:44.214016  9601 net.cpp:163] Top shape: 1 84 (84)
I0512 06:28:44.214020  9601 layer_factory.hpp:76] Creating layer conv1
I0512 06:28:44.214040  9601 net.cpp:110] Creating Layer conv1
I0512 06:28:44.214045  9601 net.cpp:477] conv1 <- data
I0512 06:28:44.214051  9601 net.cpp:433] conv1 -> conv1
I0512 06:28:44.230187  9601 net.cpp:155] Setting up conv1
I0512 06:28:44.230204  9601 net.cpp:163] Top shape: 2 96 300 500 (28800000)
I0512 06:28:44.230218  9601 layer_factory.hpp:76] Creating layer relu1
I0512 06:28:44.230226  9601 net.cpp:110] Creating Layer relu1
I0512 06:28:44.230229  9601 net.cpp:477] relu1 <- conv1
I0512 06:28:44.230233  9601 net.cpp:419] relu1 -> conv1 (in-place)
I0512 06:28:44.230240  9601 net.cpp:155] Setting up relu1
I0512 06:28:44.230244  9601 net.cpp:163] Top shape: 2 96 300 500 (28800000)
I0512 06:28:44.230247  9601 layer_factory.hpp:76] Creating layer norm1
I0512 06:28:44.230253  9601 net.cpp:110] Creating Layer norm1
I0512 06:28:44.230257  9601 net.cpp:477] norm1 <- conv1
I0512 06:28:44.230262  9601 net.cpp:433] norm1 -> norm1
I0512 06:28:44.230290  9601 net.cpp:155] Setting up norm1
I0512 06:28:44.230295  9601 net.cpp:163] Top shape: 2 96 300 500 (28800000)
I0512 06:28:44.230298  9601 layer_factory.hpp:76] Creating layer pool1
I0512 06:28:44.230304  9601 net.cpp:110] Creating Layer pool1
I0512 06:28:44.230306  9601 net.cpp:477] pool1 <- norm1
I0512 06:28:44.230309  9601 net.cpp:433] pool1 -> pool1
I0512 06:28:44.230315  9601 net.cpp:155] Setting up pool1
I0512 06:28:44.230319  9601 net.cpp:163] Top shape: 2 96 151 251 (7276992)
I0512 06:28:44.230321  9601 layer_factory.hpp:76] Creating layer conv2
I0512 06:28:44.230326  9601 net.cpp:110] Creating Layer conv2
I0512 06:28:44.230329  9601 net.cpp:477] conv2 <- pool1
I0512 06:28:44.230332  9601 net.cpp:433] conv2 -> conv2
I0512 06:28:44.231860  9601 net.cpp:155] Setting up conv2
I0512 06:28:44.231871  9601 net.cpp:163] Top shape: 2 256 76 126 (4902912)
I0512 06:28:44.231879  9601 layer_factory.hpp:76] Creating layer relu2
I0512 06:28:44.231884  9601 net.cpp:110] Creating Layer relu2
I0512 06:28:44.231887  9601 net.cpp:477] relu2 <- conv2
I0512 06:28:44.231890  9601 net.cpp:419] relu2 -> conv2 (in-place)
I0512 06:28:44.231895  9601 net.cpp:155] Setting up relu2
I0512 06:28:44.231899  9601 net.cpp:163] Top shape: 2 256 76 126 (4902912)
I0512 06:28:44.231901  9601 layer_factory.hpp:76] Creating layer norm2
I0512 06:28:44.231905  9601 net.cpp:110] Creating Layer norm2
I0512 06:28:44.231909  9601 net.cpp:477] norm2 <- conv2
I0512 06:28:44.231911  9601 net.cpp:433] norm2 -> norm2
I0512 06:28:44.231925  9601 net.cpp:155] Setting up norm2
I0512 06:28:44.231930  9601 net.cpp:163] Top shape: 2 256 76 126 (4902912)
I0512 06:28:44.231932  9601 layer_factory.hpp:76] Creating layer pool2
I0512 06:28:44.231937  9601 net.cpp:110] Creating Layer pool2
I0512 06:28:44.231940  9601 net.cpp:477] pool2 <- norm2
I0512 06:28:44.231945  9601 net.cpp:433] pool2 -> pool2
I0512 06:28:44.231950  9601 net.cpp:155] Setting up pool2
I0512 06:28:44.231956  9601 net.cpp:163] Top shape: 2 256 39 64 (1277952)
I0512 06:28:44.231961  9601 layer_factory.hpp:76] Creating layer conv3
I0512 06:28:44.231967  9601 net.cpp:110] Creating Layer conv3
I0512 06:28:44.231969  9601 net.cpp:477] conv3 <- pool2
I0512 06:28:44.231973  9601 net.cpp:433] conv3 -> conv3
I0512 06:28:44.235101  9601 net.cpp:155] Setting up conv3
I0512 06:28:44.235112  9601 net.cpp:163] Top shape: 2 384 39 64 (1916928)
I0512 06:28:44.235121  9601 layer_factory.hpp:76] Creating layer relu3
I0512 06:28:44.235126  9601 net.cpp:110] Creating Layer relu3
I0512 06:28:44.235129  9601 net.cpp:477] relu3 <- conv3
I0512 06:28:44.235134  9601 net.cpp:419] relu3 -> conv3 (in-place)
I0512 06:28:44.235141  9601 net.cpp:155] Setting up relu3
I0512 06:28:44.235143  9601 net.cpp:163] Top shape: 2 384 39 64 (1916928)
I0512 06:28:44.235146  9601 layer_factory.hpp:76] Creating layer conv4
I0512 06:28:44.235151  9601 net.cpp:110] Creating Layer conv4
I0512 06:28:44.235153  9601 net.cpp:477] conv4 <- conv3
I0512 06:28:44.235158  9601 net.cpp:433] conv4 -> conv4
I0512 06:28:44.238272  9601 net.cpp:155] Setting up conv4
I0512 06:28:44.238282  9601 net.cpp:163] Top shape: 2 384 39 64 (1916928)
I0512 06:28:44.238288  9601 layer_factory.hpp:76] Creating layer relu4
I0512 06:28:44.238293  9601 net.cpp:110] Creating Layer relu4
I0512 06:28:44.238296  9601 net.cpp:477] relu4 <- conv4
I0512 06:28:44.238301  9601 net.cpp:419] relu4 -> conv4 (in-place)
I0512 06:28:44.238306  9601 net.cpp:155] Setting up relu4
I0512 06:28:44.238309  9601 net.cpp:163] Top shape: 2 384 39 64 (1916928)
I0512 06:28:44.238312  9601 layer_factory.hpp:76] Creating layer conv5
I0512 06:28:44.238317  9601 net.cpp:110] Creating Layer conv5
I0512 06:28:44.238319  9601 net.cpp:477] conv5 <- conv4
I0512 06:28:44.238323  9601 net.cpp:433] conv5 -> conv5
I0512 06:28:44.240452  9601 net.cpp:155] Setting up conv5
I0512 06:28:44.240463  9601 net.cpp:163] Top shape: 2 256 39 64 (1277952)
I0512 06:28:44.240470  9601 layer_factory.hpp:76] Creating layer relu5
I0512 06:28:44.240475  9601 net.cpp:110] Creating Layer relu5
I0512 06:28:44.240478  9601 net.cpp:477] relu5 <- conv5
I0512 06:28:44.240484  9601 net.cpp:419] relu5 -> conv5 (in-place)
I0512 06:28:44.240489  9601 net.cpp:155] Setting up relu5
I0512 06:28:44.240494  9601 net.cpp:163] Top shape: 2 256 39 64 (1277952)
I0512 06:28:44.240495  9601 layer_factory.hpp:76] Creating layer conv5_relu5_0_split
I0512 06:28:44.240504  9601 net.cpp:110] Creating Layer conv5_relu5_0_split
I0512 06:28:44.240505  9601 net.cpp:477] conv5_relu5_0_split <- conv5
I0512 06:28:44.240509  9601 net.cpp:433] conv5_relu5_0_split -> conv5_relu5_0_split_0
I0512 06:28:44.240514  9601 net.cpp:433] conv5_relu5_0_split -> conv5_relu5_0_split_1
I0512 06:28:44.240522  9601 net.cpp:155] Setting up conv5_relu5_0_split
I0512 06:28:44.240525  9601 net.cpp:163] Top shape: 2 256 39 64 (1277952)
I0512 06:28:44.240530  9601 net.cpp:163] Top shape: 2 256 39 64 (1277952)
I0512 06:28:44.240531  9601 layer_factory.hpp:76] Creating layer roi_pool_conv5
I0512 06:28:44.240540  9601 net.cpp:110] Creating Layer roi_pool_conv5
I0512 06:28:44.240542  9601 net.cpp:477] roi_pool_conv5 <- conv5_relu5_0_split_0
I0512 06:28:44.240545  9601 net.cpp:477] roi_pool_conv5 <- rois
I0512 06:28:44.240551  9601 net.cpp:433] roi_pool_conv5 -> roi_pool_conv5
I0512 06:28:44.240556  9601 roi_pooling_layer.cpp:30] Spatial scale: 0.0625
I0512 06:28:44.240571  9601 net.cpp:155] Setting up roi_pool_conv5
I0512 06:28:44.240574  9601 net.cpp:163] Top shape: 1 256 6 6 (9216)
I0512 06:28:44.240576  9601 layer_factory.hpp:76] Creating layer fc6
I0512 06:28:44.240583  9601 net.cpp:110] Creating Layer fc6
I0512 06:28:44.240586  9601 net.cpp:477] fc6 <- roi_pool_conv5
I0512 06:28:44.240591  9601 net.cpp:433] fc6 -> fc6
I0512 06:28:44.323123  9601 net.cpp:155] Setting up fc6
I0512 06:28:44.323158  9601 net.cpp:163] Top shape: 1 4096 (4096)
I0512 06:28:44.323170  9601 layer_factory.hpp:76] Creating layer relu6
I0512 06:28:44.323182  9601 net.cpp:110] Creating Layer relu6
I0512 06:28:44.323187  9601 net.cpp:477] relu6 <- fc6
I0512 06:28:44.323194  9601 net.cpp:419] relu6 -> fc6 (in-place)
I0512 06:28:44.323202  9601 net.cpp:155] Setting up relu6
I0512 06:28:44.323205  9601 net.cpp:163] Top shape: 1 4096 (4096)
I0512 06:28:44.323209  9601 layer_factory.hpp:76] Creating layer drop6
I0512 06:28:44.323221  9601 net.cpp:110] Creating Layer drop6
I0512 06:28:44.323225  9601 net.cpp:477] drop6 <- fc6
I0512 06:28:44.323228  9601 net.cpp:419] drop6 -> fc6 (in-place)
I0512 06:28:44.323235  9601 net.cpp:155] Setting up drop6
I0512 06:28:44.323238  9601 net.cpp:163] Top shape: 1 4096 (4096)
I0512 06:28:44.323241  9601 layer_factory.hpp:76] Creating layer fc7
I0512 06:28:44.323247  9601 net.cpp:110] Creating Layer fc7
I0512 06:28:44.323249  9601 net.cpp:477] fc7 <- fc6
I0512 06:28:44.323254  9601 net.cpp:433] fc7 -> fc7
I0512 06:28:44.360462  9601 net.cpp:155] Setting up fc7
I0512 06:28:44.360496  9601 net.cpp:163] Top shape: 1 4096 (4096)
I0512 06:28:44.360507  9601 layer_factory.hpp:76] Creating layer relu7
I0512 06:28:44.360515  9601 net.cpp:110] Creating Layer relu7
I0512 06:28:44.360522  9601 net.cpp:477] relu7 <- fc7
I0512 06:28:44.360527  9601 net.cpp:419] relu7 -> fc7 (in-place)
I0512 06:28:44.360534  9601 net.cpp:155] Setting up relu7
I0512 06:28:44.360538  9601 net.cpp:163] Top shape: 1 4096 (4096)
I0512 06:28:44.360540  9601 layer_factory.hpp:76] Creating layer drop7
I0512 06:28:44.360548  9601 net.cpp:110] Creating Layer drop7
I0512 06:28:44.360551  9601 net.cpp:477] drop7 <- fc7
I0512 06:28:44.360554  9601 net.cpp:419] drop7 -> fc7 (in-place)
I0512 06:28:44.360561  9601 net.cpp:155] Setting up drop7
I0512 06:28:44.360564  9601 net.cpp:163] Top shape: 1 4096 (4096)
I0512 06:28:44.360566  9601 layer_factory.hpp:76] Creating layer fc7_drop7_0_split
I0512 06:28:44.360571  9601 net.cpp:110] Creating Layer fc7_drop7_0_split
I0512 06:28:44.360574  9601 net.cpp:477] fc7_drop7_0_split <- fc7
I0512 06:28:44.360577  9601 net.cpp:433] fc7_drop7_0_split -> fc7_drop7_0_split_0
I0512 06:28:44.360584  9601 net.cpp:433] fc7_drop7_0_split -> fc7_drop7_0_split_1
I0512 06:28:44.360589  9601 net.cpp:155] Setting up fc7_drop7_0_split
I0512 06:28:44.360597  9601 net.cpp:163] Top shape: 1 4096 (4096)
I0512 06:28:44.360600  9601 net.cpp:163] Top shape: 1 4096 (4096)
I0512 06:28:44.360604  9601 layer_factory.hpp:76] Creating layer cls_score
I0512 06:28:44.360610  9601 net.cpp:110] Creating Layer cls_score
I0512 06:28:44.360613  9601 net.cpp:477] cls_score <- fc7_drop7_0_split_0
I0512 06:28:44.360620  9601 net.cpp:433] cls_score -> cls_score
I0512 06:28:44.362990  9601 net.cpp:155] Setting up cls_score
I0512 06:28:44.362998  9601 net.cpp:163] Top shape: 1 21 (21)
I0512 06:28:44.363003  9601 layer_factory.hpp:76] Creating layer bbox_pred
I0512 06:28:44.363010  9601 net.cpp:110] Creating Layer bbox_pred
I0512 06:28:44.363013  9601 net.cpp:477] bbox_pred <- fc7_drop7_0_split_1
I0512 06:28:44.363019  9601 net.cpp:433] bbox_pred -> bbox_pred
I0512 06:28:44.372948  9601 net.cpp:155] Setting up bbox_pred
I0512 06:28:44.372959  9601 net.cpp:163] Top shape: 1 84 (84)
I0512 06:28:44.372969  9601 layer_factory.hpp:76] Creating layer loss_cls
I0512 06:28:44.372980  9601 net.cpp:110] Creating Layer loss_cls
I0512 06:28:44.372984  9601 net.cpp:477] loss_cls <- cls_score
I0512 06:28:44.372990  9601 net.cpp:477] loss_cls <- labels
I0512 06:28:44.372995  9601 net.cpp:433] loss_cls -> cls_loss
I0512 06:28:44.373005  9601 layer_factory.hpp:76] Creating layer loss_cls
…
I0512 06:28:44.373093  9601 net.cpp:433] loss_bbox -> bbox_loss
I0512 06:28:44.373126  9601 net.cpp:155] Setting up loss_bbox
I0512 06:28:44.373152  9601 net.cpp:163] Top shape: (1)
I0512 06:28:44.373155  9601 net.cpp:168]     with loss weight 1
I0512 06:28:44.373159  9601 layer_factory.hpp:76] Creating layer rpn_conv1
I0512 06:28:44.373167  9601 net.cpp:110] Creating Layer rpn_conv1
I0512 06:28:44.373178  9601 net.cpp:477] rpn_conv1 <- conv5_relu5_0_split_1
I0512 06:28:44.373181  9601 net.cpp:433] rpn_conv1 -> rpn_conv1
I0512 06:28:44.389880  9601 net.cpp:155] Setting up rpn_conv1
I0512 06:28:44.389892  9601 net.cpp:163] Top shape: 2 256 39 64 (1277952)
I0512 06:28:44.389899  9601 layer_factory.hpp:76] Creating layer rpn_relu1
I0512 06:28:44.389904  9601 net.cpp:110] Creating Layer rpn_relu1
I0512 06:28:44.389906  9601 net.cpp:477] rpn_relu1 <- rpn_conv1
I0512 06:28:44.389910  9601 net.cpp:419] rpn_relu1 -> rpn_conv1 (in-place)
I0512 06:28:44.389915  9601 net.cpp:155] Setting up rpn_relu1
I0512 06:28:44.389919  9601 net.cpp:163] Top shape: 2 256 39 64 (1277952)
I0512 06:28:44.389922  9601 layer_factory.hpp:76] Creating layer rpn_conv1_rpn_relu1_0_split
I0512 06:28:44.389926  9601 net.cpp:110] Creating Layer rpn_conv1_rpn_relu1_0_split
I0512 06:28:44.389928  9601 net.cpp:477] rpn_conv1_rpn_relu1_0_split <- rpn_conv1
I0512 06:28:44.389933  9601 net.cpp:433] rpn_conv1_rpn_relu1_0_split -> rpn_conv1_rpn_relu1_0_split_0
I0512 06:28:44.389938  9601 net.cpp:433] rpn_conv1_rpn_relu1_0_split -> rpn_conv1_rpn_relu1_0_split_1
I0512 06:28:44.389942  9601 net.cpp:155] Setting up rpn_conv1_rpn_relu1_0_split
I0512 06:28:44.389946  9601 net.cpp:163] Top shape: 2 256 39 64 (1277952)
I0512 06:28:44.389950  9601 net.cpp:163] Top shape: 2 256 39 64 (1277952)
I0512 06:28:44.389951  9601 layer_factory.hpp:76] Creating layer rpn_cls_score
I0512 06:28:44.389958  9601 net.cpp:110] Creating Layer rpn_cls_score
I0512 06:28:44.389961  9601 net.cpp:477] rpn_cls_score <- rpn_conv1_rpn_relu1_0_split_0
I0512 06:28:44.389964  9601 net.cpp:433] rpn_cls_score -> rpn_cls_score
I0512 06:28:44.390136  9601 net.cpp:155] Setting up rpn_cls_score
I0512 06:28:44.390144  9601 net.cpp:163] Top shape: 2 18 39 64 (89856)
I0512 06:28:44.390149  9601 layer_factory.hpp:76] Creating layer rpn_bbox_pred
I0512 06:28:44.390158  9601 net.cpp:110] Creating Layer rpn_bbox_pred
I0512 06:28:44.390172  9601 net.cpp:477] rpn_bbox_pred <- rpn_conv1_rpn_relu1_0_split_1
I0512 06:28:44.390177  9601 net.cpp:433] rpn_bbox_pred -> rpn_bbox_pred
I0512 06:28:44.390470  9601 net.cpp:155] Setting up rpn_bbox_pred
I0512 06:28:44.390475  9601 net.cpp:163] Top shape: 2 36 39 64 (179712)
I0512 06:28:44.390480  9601 layer_factory.hpp:76] Creating layer silence_rpn_cls_score
I0512 06:28:44.390487  9601 net.cpp:110] Creating Layer silence_rpn_cls_score
I0512 06:28:44.390491  9601 net.cpp:477] silence_rpn_cls_score <- rpn_cls_score
I0512 06:28:44.390494  9601 net.cpp:155] Setting up silence_rpn_cls_score
I0512 06:28:44.390497  9601 layer_factory.hpp:76] Creating layer silence_rpn_bbox_pred
…
